…
ning labels /home/disk1/yenanfei/DMS_phone/phoneData_padding/ImageSets/trainval_1.cache (21475 found, 0 missing, 3173 empty, 0 duplicate, for 26331 images): 24648it [00:01, 14201.14it/s]Scanning labels /home/disk1/yenanfei/DMS_phone/phoneData_padding/ImageSets/trainval_1.cache (22125 found, 0 missing, 4206 empty, 0 duplicate, for 26331 images): 26331it [00:01, 15984.34it/s]----------------------------------------------------------------
        Layer (type)               Output Shape         Param #
================================================================
            Conv2d-1         [-1, 64, 128, 128]             640
       BatchNorm2d-2         [-1, 64, 128, 128]             128
              ReLU-3         [-1, 64, 128, 128]               0
            Conv2d-4         [-1, 64, 128, 128]          36,928
       BatchNorm2d-5         [-1, 64, 128, 128]             128
              ReLU-6         [-1, 64, 128, 128]               0
         MaxPool2d-7           [-1, 64, 64, 64]               0
            Conv2d-8          [-1, 128, 64, 64]          73,856
       BatchNorm2d-9          [-1, 128, 64, 64]             256
             ReLU-10          [-1, 128, 64, 64]               0
           Conv2d-11          [-1, 128, 64, 64]         147,584
      BatchNorm2d-12          [-1, 128, 64, 64]             256
             ReLU-13          [-1, 128, 64, 64]               0
        MaxPool2d-14          [-1, 128, 32, 32]               0
           Conv2d-15          [-1, 256, 32, 32]         295,168
      BatchNorm2d-16          [-1, 256, 32, 32]             512
             ReLU-17          [-1, 256, 32, 32]               0
           Conv2d-18          [-1, 256, 32, 32]         590,080
      BatchNorm2d-19          [-1, 256, 32, 32]             512
             ReLU-20          [-1, 256, 32, 32]               0
        MaxPool2d-21          [-1, 256, 16, 16]               0
           Conv2d-22          [-1, 512, 16, 16]       1,180,160
      BatchNorm2d-23          [-1, 512, 16, 16]           1,024
             ReLU-24          [-1, 512, 16, 16]               0
           Conv2d-25          [-1, 512, 16, 16]       2,359,808
      BatchNorm2d-26          [-1, 512, 16, 16]           1,024
             ReLU-27          [-1, 512, 16, 16]               0
        MaxPool2d-28            [-1, 512, 8, 8]               0
           Conv2d-29            [-1, 512, 8, 8]       2,359,808
      BatchNorm2d-30            [-1, 512, 8, 8]           1,024
             ReLU-31            [-1, 512, 8, 8]               0
           Conv2d-32            [-1, 512, 8, 8]       2,359,808
      BatchNorm2d-33            [-1, 512, 8, 8]           1,024
             ReLU-34            [-1, 512, 8, 8]               0
           Conv2d-35            [-1, 512, 8, 8]       2,359,808
      BatchNorm2d-36            [-1, 512, 8, 8]           1,024
             ReLU-37            [-1, 512, 8, 8]               0
           Conv2d-38            [-1, 512, 8, 8]         262,656
      BatchNorm2d-39            [-1, 512, 8, 8]           1,024
             ReLU-40            [-1, 512, 8, 8]               0
           Conv2d-41            [-1, 256, 8, 8]         131,328
      BatchNorm2d-42            [-1, 256, 8, 8]             512
             ReLU-43            [-1, 256, 8, 8]               0
           Conv2d-44            [-1, 512, 4, 4]       1,180,160
      BatchNorm2d-45            [-1, 512, 4, 4]           1,024
             ReLU-46            [-1, 512, 4, 4]               0
           Conv2d-47            [-1, 128, 4, 4]          65,664
      BatchNorm2d-48            [-1, 128, 4, 4]             256
             ReLU-49            [-1, 128, 4, 4]               0
           Conv2d-50            [-1, 256, 2, 2]         295,168
      BatchNorm2d-51            [-1, 256, 2, 2]             512
             ReLU-52            [-1, 256, 2, 2]               0
           Conv2d-53            [-1, 128, 2, 2]          32,896
      BatchNorm2d-54            [-1, 128, 2, 2]             256
             ReLU-55            [-1, 128, 2, 2]               0
           Conv2d-56            [-1, 256, 1, 1]         295,168
      BatchNorm2d-57            [-1, 256, 1, 1]             512
             ReLU-58            [-1, 256, 1, 1]               0
           Conv2d-59           [-1, 24, 16, 16]         110,616
          Permute-60           [-1, 16, 16, 24]               0
          Flatten-61                 [-1, 6144]               0
           Conv2d-62           [-1, 12, 16, 16]          55,308
          Permute-63           [-1, 16, 16, 12]               0
          Flatten-64                 [-1, 3072]               0
           Conv2d-65             [-1, 24, 8, 8]         110,616
          Permute-66             [-1, 8, 8, 24]               0
          Flatten-67                 [-1, 1536]               0
           Conv2d-68             [-1, 12, 8, 8]          55,308
          Permute-69             [-1, 8, 8, 12]               0
          Flatten-70                  [-1, 768]               0
           Conv2d-71             [-1, 24, 4, 4]         110,616
          Permute-72             [-1, 4, 4, 24]               0
          Flatten-73                  [-1, 384]               0
           Conv2d-74             [-1, 12, 4, 4]          55,308
          Permute-75             [-1, 4, 4, 12]               0
          Flatten-76                  [-1, 192]               0
           Conv2d-77             [-1, 24, 2, 2]          55,320
          Permute-78             [-1, 2, 2, 24]               0
          Flatten-79                   [-1, 96]               0
           Conv2d-80             [-1, 12, 2, 2]          27,660
          Permute-81             [-1, 2, 2, 12]               0
          Flatten-82                   [-1, 48]               0
           Conv2d-83             [-1, 24, 1, 1]          55,320
          Permute-84             [-1, 1, 1, 24]               0
          Flatten-85                   [-1, 24]               0
           Conv2d-86             [-1, 12, 1, 1]          27,660
          Permute-87             [-1, 1, 1, 12]               0
          Flatten-88                   [-1, 12]               0
           Concat-89                 [-1, 8184]               0
           Concat-90                 [-1, 4092]               0
================================================================
Total params: 14,701,428
Trainable params: 14,701,428
Non-trainable params: 0
----------------------------------------------------------------
Input size (MB): 0.06
Forward/backward pass size (MB): 97.78
Params size (MB): 56.08
Estimated Total Size (MB): 153.92
----------------------------------------------------------------
(3, 3) (3,) (192, 192) 3
(192, 192) 3 (3,)
(3, 192) 3 3 64
(192, 192) (192,) (192, 192) 126
(192, 192) 126 (192,)
(126, 192) 126 3 64
(192, 192) (192,) (384, 384) 149
(384, 384) 149 (192,)
(149, 384) 149 3 128
(384, 384) (384,) (384, 384) 251
(384, 384) 251 (384,)
(251, 384) 251 3 128
(384, 384) (384,) (768, 768) 293
(768, 768) 293 (384,)
(293, 768) 293 3 256
(768, 768) (768,) (768, 768) 488
(768, 768) 488 (768,)
(488, 768) 488 3 256
(768, 768) (768,) (1536, 1536) 569
(1536, 1536) 569 (768,)
(569, 1536) 569 3 512
(1536, 1536) (1536,) (1536, 1536) 872
(1536, 1536) 872 (1536,)
(872, 1536) 872 3 512
(1536, 1536) (1536,) (1536, 1536) 513
(1536, 1536) 513 (1536,)
(513, 1536) 513 3 512
(1536, 1536) (1536,) (1536, 1536) 449
(1536, 1536) 449 (1536,)
(449, 1536) 449 3 512
(1536, 1536) (1536,) (1536, 1536) 486
(1536, 1536) 486 (1536,)
(486, 1536) 486 3 512
(768, 768) (768,) (1536, 1536) 174
(1536, 1536) 174 (768,)
(174, 1536) 174 3 512
(384, 384) (384,) (768, 768) 88
(768, 768) 88 (384,)
(88, 768) 88 3 256
(384, 384) (384,) (768, 768) 39
(768, 768) 39 (384,)
(39, 768) 39 3 256
(1536, 1536) (72,) (72, 72) 51
(72, 72) 51 (72,)
(51, 72) 51 3 24
(1536, 1536) (36,) (36, 36) 25
(36, 36) 25 (36,)
(25, 36) 25 3 12
(1536, 1536) (72,) (72, 72) 54
(72, 72) 54 (72,)
(54, 72) 54 3 24
(1536, 1536) (36,) (36, 36) 22
(36, 36) 22 (36,)
(22, 36) 22 3 12
(1536, 1536) (72,) (72, 72) 39
(72, 72) 39 (72,)
(39, 72) 39 3 24
(1536, 1536) (36,) (36, 36) 11
(36, 36) 11 (36,)
(11, 36) 11 3 12
(768, 768) (72,) (72, 72) 20
(72, 72) 20 (72,)
(20, 72) 20 3 24
(768, 768) (36,) (36, 36) 6
(36, 36) 6 (36,)
(6, 36) 6 3 12
(768, 768) (72,) (72, 72) 4
(72, 72) 4 (72,)
(4, 72) 4 3 24
(768, 768) (36,) (36, 36) 1
(36, 36) 1 (36,)
(1, 36) 1 3 12
(3, 3) (3,) (192, 192) 3
(192, 192) 3 (3,)
(3, 192) 3 3 64
(192, 192) (192,) (192, 192) 126
(192, 192) 126 (192,)
(126, 192)
I1207 13:49:55.287070 28159 train_pro.py:441] ======>>> restore snapshot /home/disk1/yenanfei/DMS_phone/phone_model_pytorch/snapshot/phone_128/phone_128_lowrank_continue.pth
 126 3 64
(192, 192) (192,) (384, 384) 149
(384, 384) 149 (192,)
(149, 384) 149 3 128
(384, 384) (384,) (384, 384) 251
(384, 384) 251 (384,)
(251, 384) 251 3 128
(384, 384) (384,) (768, 768) 293
(768, 768) 293 (384,)
(293, 768) 293 3 256
(768, 768) (768,) (768, 768) 488
(768, 768) 488 (768,)
(488, 768) 488 3 256
(768, 768) (768,) (1536, 1536) 569
(1536, 1536) 569 (768,)
(569, 1536) 569 3 512
(1536, 1536) (1536,) (1536, 1536) 872
(1536, 1536) 872 (1536,)
(872, 1536) 872 3 512
(1536, 1536) (1536,) (1536, 1536) 513
(1536, 1536) 513 (1536,)
(513, 1536) 513 3 512
(1536, 1536) (1536,) (1536, 1536) 449
(1536, 1536) 449 (1536,)
(449, 1536) 449 3 512
(1536, 1536) (1536,) (1536, 1536) 486
(1536, 1536) 486 (1536,)
(486, 1536) 486 3 512
(768, 768) (768,) (1536, 1536) 174
(1536, 1536) 174 (768,)
(174, 1536) 174 3 512
(384, 384) (384,) (768, 768) 88
(768, 768) 88 (384,)
(88, 768) 88 3 256
(384, 384) (384,) (768, 768) 39
(768, 768) 39 (384,)
(39, 768) 39 3 256
(1536, 1536) (72,) (72, 72) 51
(72, 72) 51 (72,)
(51, 72) 51 3 24
(1536, 1536) (36,) (36, 36) 25
(36, 36) 25 (36,)
(25, 36) 25 3 12
(1536, 1536) (72,) (72, 72) 54
(72, 72) 54 (72,)
(54, 72) 54 3 24
(1536, 1536) (36,) (36, 36) 22
(36, 36) 22 (36,)
(22, 36) 22 3 12
(1536, 1536) (72,) (72, 72) 39
(72, 72) 39 (72,)
(39, 72) 39 3 24
(1536, 1536) (36,) (36, 36) 11
(36, 36) 11 (36,)
(11, 36) 11 3 12
(768, 768) (72,) (72, 72) 20
(72, 72) 20 (72,)
(20, 72) 20 3 24
(768, 768) (36,) (36, 36) 6
(36, 36) 6 (36,)
(6, 36) 6 3 12
(768, 768) (72,) (72, 72) 4
(72, 72) 4 (72,)
(4, 72) 4 3 24
(768, 768) (36,) (36, 36) 1
(36, 36) 1 (36,)
(1, 36) 1 3 12
DataParallel(
  (module): phone_128_float(
    (conv1_1): Sequential(
      (conv1_1_v): Conv2d(1, 3, kernel_size=(3, 1), stride=(1, 1), padding=(1, 0))
      (conv1_1_h): Conv2d(3, 64, kernel_size=(1, 3), stride=(1, 1), padding=(0, 1))
    )
    (bn_conv1_1): BatchNorm2d(64, eps=1e-05, momentum=0.1, affine=True, track_running_stats=True)
    (relu1_1): ReLU(inplace=True)
    (conv1_2): Sequential(
…
